src/tetris_project/ai/param/NN6.pth (torch, 32112 bytes, 7 tensors)

fc1.weight f4 [64, 14]
0	0xbeb775be	-0.35832018
1	0xbeb3c04d	-0.3510765
2	0xbe56278c	-0.20913523
3	0x3dd313f1	0.10306538
4	0xbdd519e7	-0.10405331
5	0xbdf49db3	-0.11944141
6	0x3d388a1d	0.04505359
7	0xbe0dfed6	-0.13866743
8	0xbeb74640	-0.35795784
9	0x3bba8314	0.0056918953
10	0xbd7a6b37	-0.061137404
11	0xbe60bc5e	-0.21946856
12	0xbe0d873a	-0.13821116
13	0x3e848cae	0.2588858
14	0x3f0965d6	0.53671014
15	0xbe340580	-0.17580223
16	0xbdab7519	-0.08371944
17	0xbe8ff00d	-0.28112832
18	0xbe94f60c	-0.2909397
19	0xbeea64a6	-0.45779914
20	0x3e0acc56	0.1355451
21	0x3e4f5fc3	0.20251374
22	0x3d111e5d	0.035429347
23	0x3f9d1ff8	1.2275381
24	0x3d3ea8c5	0.04654767
25	0xbe6f9259	-0.23395671
26	0xbe77b84e	-0.241914
27	0x3e453926	0.19260082
28	0xbfedf4de	-1.8590353
29	0x3de27f8a	0.110594824
30	0x3cb5a637	0.022173984
31	0x3ed1bb1c	0.40963066
32	0x3f10e9cf	0.56606764
33	0xbeb5f43f	-0.35537907
34	0x3ebdbb99	0.37057188
35	0x3db54f35	0.08852998
36	0x3ea9969c	0.33122718
37	0xbc80c003	-0.015716558
38	0x3ca26cff	0.019827364
39	0x3e93af80	0.28844833
40	0x3f0a9123	0.5412771
41	0x3f0376ab	0.5135295
42	0x4023cc6e	2.5593524
43	0x3da0ee76	0.07857983
44	0xbdbae4b1	-0.09125651
45	0xbec5245f	-0.3850431
46	0x3dccb08c	0.09994611
47	0x3f8b7ce0	1.0897484
48	0x3e679efc	0.22619241
49	0xbb8287b5	-0.0039834627
50	0x3e5762ff	0.21033858
51	0x3ee69e77	0.45042774
52	0x3f143c87	0.5790486
53	0x3dc08d7b	0.09401985
54	0x3f136e86	0.5759052
55	0xbda90343	-0.08252575
56	0xbfa08228	-1.253972
57	0xbe286d06	-0.16447839
58	0x3eddd279	0.4332464
59	0x3e052187	0.13001071
60	0x3eea6708	0.45781732
61	0x3eb78b10	0.35848284
62	0x3e8d8520	0.2764063
63	0x3d3a4a07	0.045480754
64	0x3ea2e07f	0.31811902
65	0x3d05c316	0.03265675
66	0x3dda39e9	0.10655577
67	0x3e5d4869	0.21609654
68	0xbde38133	-0.11108627
69	0xbd8e5cc1	-0.06951285
70	0x3de573ae	0.11203705
71	0xbd82e2a4	-0.063908845
72	0x3f9abf7a	1.2089684
73	0x3f420450	0.7578783
74	0x3f61b2d5	0.881635
75	0x3f1bcc74	0.60858846
76	0x3e3add5d	0.18248506
77	0xbd11e781	-0.03562117
78	0x3f9207c2	1.1408617
79	0x3da81fa4	0.0820916
80	0xbc2a0e10	-0.010379329
81	0x3e852d2d	0.2601103
82	0x3eeea57e	0.46610636
83	0x3e697a08	0.22800457
84	0xbf7d948c	-0.9905479
85	0xbf033e10	-0.51266575
86	0xbe6aebbd	-0.2294149
87	0x3e336cb8	0.17521942
88	0xbe2cb3a4	-0.16865402
89	0xbf18d842	-0.59704983
90	0xbece0205	-0.40235916
91	0xbe37e866	-0.17959747
92	0xbf01832e	-0.5059079
93	0xbf03c61c	-0.51474166
94	0xbeab6fc9	-0.33483723
95	0x3d142d0e	0.03617578
96	0x3d451f8c	0.04812579
97	0xbee6656a	-0.44999248
98	0xbf977d0a	-1.1835034
99	0xbf3b055f	-0.7305507
100	0xbea1bf63	-0.3159133
101	0xbdc62bc5	-0.09676317
102	0x3dc5a94b	0.09651431
103	0xbf29e5c4	-0.6636622
104	0x3d973118	0.07382411
105	0xbd5ea91d	-0.054360498
106	0xbd89bc26	-0.067253396
107	0xbe776e49	-0.24163164
108	0xbe6c5ec3	-0.23083024
109	0xbe49736a	-0.19672933
110	0xbc9ac7d8	-0.018894121
111	0xbe86aeba	-0.2630518
112	0xbf58f0cf	-0.84742445
113	0xbf5fa006	-0.8735355
114	0x3dbb3115	0.09140221
115	0xbdcfdc95	-0.101494946
116	0x3be21f87	0.006900731
117	0xbe9d60bd	-0.30737868
118	0xbdd8c813	-0.10585036
119	0x3c72d8d4	0.014822204
120	0xbeb97cf8	-0.36228156
121	0xbf1c8da4	-0.61153626
122	0xbe7b9f1b	-0.24572413
123	0xbcf518bc	-0.02991902
124	0x3d34ab26	0.044108532
125	0xbecee3f4	-0.4040829
126	0xbfe048c2	-1.7522204
127	0x3e19c6a3	0.1501718
128	0x3eb4454b	0.35209116
129	0x3f273fb9	0.6533161
130	0x3eba8623	0.36430463
131	0xbe30844f	-0.17237972
132	0x3e64ec6c	0.22355813
133	0x3d816bef	0.06319415
134	0x3ec93340	0.39296913
135	0x3da4b221	0.08041788
136	0x3e8210b2	0.25403363
137	0x3e6012d2	0.2188218
138	0x3e8499e2	0.25898653
139	0x3ec7e30a	0.39040405
140	0x404f4c54	3.2390337
141	0x3e30e731	0.17275693
142	0x3e2fea3b	0.17179196
143	0x3c8faeb8	0.017539367
144	0xbe227510	-0.15864968
145	0x3fb7cc24	1.4359174
146	0x3ed29c64	0.41134942
147	0x3dce2d98	0.1006729
148	0x3ed7b377	0.42129108
149	0x3f57642b	0.8413722
150	0x3f69d52e	0.9134091
151	0x3e850e93	0.25987682
152	0x3f014b15	0.5050519
153	0x3f3d1455	0.7385915
154	0x400ee3c4	2.2326517
155	0x3d0c7126	0.034287594
156	0x3ddd96ba	0.108197644
157	0xbea67581	-0.32511523
158	0xbdff7b46	-0.124746844
159	0x3f91491d	1.1350437
160	0xbe62c80d	-0.22146626
161	0x3a2de6c6	0.0006633814
162	0x3f00162f	0.5003385
163	0x3e75cda5	0.24004228
164	0x3eae9e31	0.34105065
165	0x3e538eb2	0.20659903
166	0x3e9cd759	0.30633047
167	0x3ec90891	0.39264348
168	0xbe91b33a	-0.28457052
169	0xbeb51204	-0.35365307
170	0xbe8bbdff	-0.27293393
171	0xbdf49534	-0.11942521
172	0x3dc5fd8a	0.09667499
173	0xbe583720	-0.21114779
174	0xbc752ef3	-0.014964807
175	0xbd6787ad	-0.056525875
176	0xbedfdfc3	-0.43725404
177	0xbe2c0592	-0.16799
178	0x3d07e0fb	0.033173542
179	0xbdd2382d	-0.10264621
180	0x3d87b5e1	0.066264875
181	0x3eaa85f5	0.33305326
182	0x3c88629c	0.016648583
183	0xbe8fac35	-0.2806107
184	0x3e0d786c	0.13815469
185	0xbe1ff556	-0.15620932
186	0xbdb6ce6f	-0.08926093
187	0xbca3dfe1	-0.020004215
188	0xbce61319	-0.028085278
189	0x3c512669	0.012765505
190	0xbe3ca87c	-0.18423647
191	0xbea02bf9	-0.31283548
192	0xbdb504ab	-0.08838781
193	0xbda98bd5	-0.08278624
194	0xbdae34e3	-0.08506181
195	0x3e668e9d	0.2251534
196	0xbe239d26	-0.15977916
197	0xbf3840f3	-0.71974105
198	0x3ec95c21	0.393281
199	0xbe8e216f	-0.27759883
200	0xbdc42959	-0.09578199
201	0x3e9cc42e	0.30618423
202	0x3e71a66a	0.23598638
203	0x3c99e5a1	0.018786253
204	0xbe35f786	-0.17770204
205	0x3e8e2fc0	0.27770805
206	0x3d328c56	0.043590866
207	0x3e34b4ac	0.17647046
208	0xbd3c8b57	-0.046031322
209	0x3f104a56	0.5636343
210	0xbfafe47f	-1.3741606
211	0xbf734d04	-0.9503939
212	0xbf1baabe	-0.60807407
213	0x3cb82c53	0.022482073
214	0xbcaceb4c	-0.021108292
215	0xbf2b4715	-0.6690534
216	0xbee7b41e	-0.45254606
217	0xbf05cb4d	-0.5226334
218	0xbdfd3711	-0.12364019
219	0xbea318e5	-0.3185493
220	0xbe540294	-0.20704108
221	0x3c8a8363	0.016908353
222	0xbd7b231e	-0.061312787
223	0xbe8eaf8d	-0.2786831
224	0x400204b8	2.031538
225	0xbe830839	-0.2559221
226	0xbe007c81	-0.12547494
227	0x3dc1591f	0.094408266
228	0x3ec33cfc	0.38132465
229	0x3f2c3ca7	0.6728005
230	0x3e55b50a	0.20869842
231	0xbd784d0b	-0.06062035
232	0x3df984eb	0.12183555
233	0xbd08705c	-0.03331028
234	0x3f3b84ad	0.7324932
235	0x3f35a1ca	0.70949996
236	0x3e6d0a16	0.23148379
237	0x3ec60f5e	0.386836
238	0x402a6234	2.6622438
239	0x3e5c3b2c	0.21506947
240	0x3d91f145	0.07126097
241	0xbec0522b	-0.3756269
242	0xbe83ec47	-0.25766203
243	0x3f98bac1	1.1931993
244	0x3e850f51	0.25988248
245	0x3c0cdce1	0.0085975835
246	0x3ef43469	0.47696236
247	0x3f517008	0.8181157
248	0x3e4747a7	0.19460927
249	0x3f05b60e	0.5223092
250	0x3da09988	0.07841784
251	0x3e8775dc	0.26457107
252	0xbfd5f040	-1.6713943
253	0xbfc4dd61	-1.538006
254	0xbe893759	-0.2680004
255	0xbce70d15	-0.02820448

fc1.bias f4 [64]
0	0xbd38b621	-0.045095567
1	0xbe3f5294	-0.18683845
2	0x3ec97bcb	0.3935226
3	0xbe7227a1	-0.2364793
4	0x3ea2add6	0.3177325
5	0x3ed470c9	0.41492298
6	0xbd0155b9	-0.031575892
7	0x3cbebf85	0.023284683
8	0xbecb01df	-0.39649865
9	0x3f21b5ab	0.6316783
10	0x3e3ab2f5	0.18232329
11	0xbe77b58d	-0.2419035
12	0x3dbc92bd	0.092076756
13	0xbdf20c2e	-0.11818729
14	0x3e1573be	0.14594933
15	0xbe1e988f	-0.15487884
16	0x3eee21de	0.46510214
17	0xbda7d5e7	-0.081950955
18	0xbed74ac0	-0.42049217
19	0x3ec1a936	0.3782441
20	0x3d98cb63	0.07460668
21	0x3ed7cbc5	0.4214765
22	0x3d06ef73	0.0329432
23	0x3e2b7771	0.16744782
24	0x3d3060c0	0.043061018
25	0xbd857987	-0.0651732
26	0x3f3e93a8	0.74444056
27	0xbd333339	-0.04375002
28	0x3c9fa30c	0.019486926
29	0x3ee10428	0.43948483
30	0x3f15ab9d	0.58464986
31	0xbe0744db	-0.1320986
32	0xbe432923	-0.19058661
33	0xbe77efb4	-0.24212533
34	0xbe1f1a4f	-0.1553738
35	0x3efabae9	0.48970726
36	0xbe0ff4c5	-0.14058216
37	0xbe84a5fe	-0.25907892
38	0x3e291dd5	0.16515286
39	0x3da3063a	0.07960172
40	0xbd6c3cf9	-0.057675336
41	0xbe0354ad	-0.1282527
42	0x3e5af8cd	0.21383972
43	0x3e49a0d0	0.19690251
44	0xbe53bf50	-0.20678449
45	0xbd4179f6	-0.04723545
46	0x3c1da516	0.009621879
47	0xbe2db617	-0.16963993
48	0x3e729494	0.2368949
49	0xbe71f3fe	-0.23628232
50	0xbe770069	-0.2412125
51	0x3dc2b804	0.095077544
52	0xbdbd805c	-0.09252998
53	0x3d81d824	0.06340054
54	0x3f52ed1e	0.8239306
55	0xbbd8fd0c	-0.0066219624
56	0xbcc875c8	-0.024470225
57	0x3e331893	0.17489843
58	0x3cfafc54	0.030637898
59	0xbe8b7c8a	-0.27243453
60	0xbe6ec18b	-0.23316018
61	0x3e3156dc	0.1731829
62	0xbd836e49	-0.064175196
63	0xbe3e37fa	-0.18576041

fc2.weight f4 [64, 64]
0	0xbde36acb	-0.111043535
1	0x3dac3dbc	0.084102124
2	0x3cd54ca4	0.026037522
3	0xbd1be4c0	-0.03805995
4	0x3d010813	0.03150184
5	0x3d84209c	0.06451532
6	0xbdea31d4	-0.11435285
7	0xbc95b17d	-0.01827311
8	0xbc94a2a5	-0.018143961
9	0xbdcdfad2	-0.10057606
10	0x3cd19e86	0.025588285
11	0xbe1a63f6	-0.15077195
12	0xbd038694	-0.032110766
13	0x3d15c5fe	0.036565773
14	0xbdb465a4	-0.08808449
15	0xbd52bf0c	-0.051451728
16	0xbdb55ebe	-0.08855961
17	0xbd335c1e	-0.04378902
18	0xbde4ceb6	-0.111722395
19	0x3bc9cfb2	0.0061587924
20	0x3b062993	0.0020471558
21	0xbd9c8593	-0.07642665
22	0xbdb13864	-0.08653334
23	0x3b306aff	0.0026919243
24	0xbca74f0c	-0.020423435
25	0xbdb11319	-0.08646221
26	0x3d542fbf	0.051803347
27	0x3c04eaa1	0.0081125805
28	0x3dc1d520	0.094644785
29	0xbcfb230c	-0.03065636
30	0x3d3267ab	0.043555897
31	0x3c7917fb	0.015203471
32	0x3d5ab210	0.05339247
33	0xbdc31c88	-0.09526926
34	0xbdbeb2df	-0.09311461
35	0xbd7ba895	-0.06144007
36	0x3cbf84b7	0.023378713
37	0x3d6b808c	0.05749564
38	0xbd044814	-0.0322953
39	0xbd4d01e4	-0.05005063
40	0x3dd0d93c	0.10197684
41	0x3d9f111d	0.07766936
42	0x3d26e4e0	0.040745616
43	0x3c670ef0	0.0141026825
44	0xbdd0c8e8	-0.1019457
45	0x3de73334	0.11289063
46	0xbdce3c84	-0.10070136
47	0xbc0c1a90	-0.008551255
48	0xbca23ee8	-0.019805387
49	0x3cc0e54c	0.023546837
50	0x3de80327	0.11328726
51	0x3c6dc271	0.0145116905
52	0xbdebf84c	-0.11521968
53	0xbe17c1ac	-0.14819974
54	0x3d0234e3	0.031788718
55	0x3dcf8181	0.10132123
56	0xbdff7219	-0.12472934
57	0xbd93bae5	-0.07213382
58	0x3d53c7d8	0.051704258
59	0x3bd71184	0.0065633673
60	0xbde3026c	-0.11084446
61	0xbd92a74b	-0.07160815
62	0x3dd7fada	0.10545893
63	0x3c398787	0.011323816
64	0x3df4b0d2	0.11947788
65	0xbd0543f0	-0.032535493
66	0xbbc08205	-0.0058748745
67	0x3dce6e3f	0.100796215
68	0xbe05ce74	-0.13067037
69	0xbc5b86a7	-0.013398803
70	0xbc554980	-0.013018012
71	0xbe0ff31e	-0.14057586
72	0xbd41e740	-0.047339678
73	0xbcb728d3	-0.022358334
74	0x3dc73e16	0.09728639
75	0xbdb12886	-0.08650307
76	0xbdcd782a	-0.10032685
77	0x3de70482	0.11280157
78	0xbcba7c88	-0.02276446
79	0xbd4f0698	-0.050543398
80	0x3dd093bc	0.10184428
81	0x3cb5cb70	0.022191733
82	0xbde1c77e	-0.11024378
83	0xbe0f3799	-0.13986053
84	0x3d1c9db3	0.03823633
85	0xbd2dc9f8	-0.04242894
86	0x3d122573	0.035680246
87	0xbde11f70	-0.10992324
88	0x3de1884e	0.11012326
89	0xbcd03840	-0.025417447
90	0x3d99a578	0.07502264
91	0x3bdee620	0.0068023354
92	0xbcd4d640	-0.025981069
93	0xbdb927db	-0.09040805
94	0xbd6025de	-0.054723613
95	0x3d6b0668	0.057379156
96	0x3a6a7000	0.0008943081
97	0x3c9702a0	0.018433869
98	0xbdbb7561	-0.091532476
99	0xbe40ebd6	-0.18839964
100	0xbe2493fe	-0.1607208
101	0xbcb3b557	-0.021937056
102	0x3d9d1ea0	0.07671857
103	0x3d9d948c	0.07694349
104	0x3d2edafc	0.04268931
105	0xbccfcb7e	-0.025365587
106	0x3d7b2a28	0.0613195
107	0x39da9200	0.0004168898
108	0xbe4677a9	-0.19381584
109	0xbd255f98	-0.04037437
110	0xbdccf812	-0.10008253
111	0xbb295d40	-0.0025842935
112	0xbc4b48e0	-0.0124075115
113	0xbd4a1678	-0.049337834
114	0xbd649624	-0.055807248
115	0xbe299e32	-0.16564253
116	0x3d498ea0	0.049208283
117	0x3d82997c	0.06376931
118	0xbd469613	-0.048482966
119	0x3da25052	0.07925476
120	0xbdf18d54	-0.11794534
121	0xbde9687a	-0.113968804
122	0xbd40b51c	-0.04704772
123	0x3d0a18b0	0.03371495
124	0x3ccf2300	0.025285244
125	0x3dbb79d6	0.09154098
126	0x3d1e1c40	0.03860116
127	0x3d800d4a	0.06252535
128	0x3cb0bb64	0.02157373
129	0x3dbcff92	0.09228434
130	0xbdfbec5f	-0.123009436
131	0xbd9b748d	-0.0759059
132	0x3d3f95a6	0.046773575
133	0xbe5300a6	-0.20605716
134	0xbd0f929b	-0.035051923
135	0xbe1b2cfc	-0.15153879
136	0xbd8231fc	-0.0635719
137	0xbe0612fc	-0.1309318
138	0xbda49773	-0.08036699
139	0xbdce9d6a	-0.10088618
140	0xbcbfcb27	-0.0234123
141	0x3d326f48	0.043563157
142	0x3b9bec95	0.0047584274
143	0xbe140b09	-0.14457335
144	0xbe6e6ebc	-0.2328443
145	0xbe19e4df	-0.15028714
146	0x3d70b0e2	0.05876244
147	0xbcae6223	-0.02128703
148	0xbe0c01e3	-0.13672595
149	0xbd5451f1	-0.051835958
150	0xbe63b58e	-0.22237226
151	0x3db7bb97	0.08971327
152	0xbd6c569a	-0.057699777
153	0xbc8991a5	-0.016793082
154	0x3b93e899	0.004513812
155	0xbd121eac	-0.035673782
156	0xbda046bf	-0.07825994
157	0xbd3b04f2	-0.045659013
158	0xbda0c003	-0.07849123
159	0xbd935fec	-0.0719603
160	0xbd2c6eb1	-0.04209775
161	0xbdc034d6	-0.09385078
162	0xbc8a7ff9	-0.016906725
163	0x3cbe0234	0.02319441
164	0xbe0ce688	-0.13759816
165	0xbdec632b	-0.11542352
166	0x3d9d14e6	0.07670002
167	0xbda14159	-0.07873792
168	0xbdcf2c56	-0.10115878
169	0x3e05d691	0.13070132
170	0xbdb97e30	-0.090572715
171	0x3dd45e08	0.103694975
172	0x3cbae223	0.022812909
173	0xbbe4733f	-0.006971746
174	0x3d984165	0.07434348
175	0x3b928080	0.004470885
176	0x3c2107e0	0.009828538
177	0x3d79ee65	0.061018366
178	0x3d7d803a	0.061889865
179	0x3d2a2b2d	0.041545082
180	0xbe1c93d4	-0.15290767
181	0x3d27684c	0.04087095
182	0xbc83e624	-0.01610095
183	0xbd4f5439	-0.05061743
184	0xbd5a0625	-0.053228516
185	0x3cb87325	0.022515843
186	0x3ae04a6b	0.0017112022
187	0x3d8edaf3	0.06975355
188	0x3d3b6f24	0.04576029
189	0xbd0bd8ce	-0.034142308
190	0x3d944ee6	0.07241611
191	0xbce5d382	-0.028054956
192	0x3e120bd4	0.14262325
193	0x3d6b4bc0	0.057445288
194	0xbddf66bc	-0.10908267
195	0x3c845fdc	0.01615899
196	0x3c54a07f	0.012977718
197	0x3d360979	0.044442628
198	0xbd97ee95	-0.07418553
199	0xbd0c216e	-0.03421157
200	0xbdce3517	-0.1006872
201	0xbe06f8cb	-0.13180844
202	0xbd1f6851	-0.038917843
203	0xbd0068f5	-0.031350095
204	0x3cfe155e	0.031016048
205	0x3e1f7404	0.155716
206	0x3d30b6d3	0.043143105
207	0xbdd11753	-0.10209527
208	0x3ddf47cb	0.10902365
209	0xbcee119a	-0.029061127
210	0x3d90264a	0.07038553
211	0xbd1b483f	-0.037910696
212	0xbe0cd057	-0.1375135
213	0xbdee1f9f	-0.11627125
214	0xbdf2cb46	-0.118551776
215	0x3d887b38	0.06664127
216	0x3c76a254	0.0150533505
217	0xbdcf06f7	-0.1010875
218	0xbb4dabc1	-0.003138289
219	0x3de630ad	0.11239753
220	0x3d9f14ca	0.07767637
221	0xbd07defc	-0.03317164
222	0xbd880036	-0.06640665
223	0x3db78c62	0.08962323
224	0x3dc3a871	0.09553612
225	0xbded26fa	-0.115797
226	0xbd90e2a9	-0.07074482
227	0x3c4bd741	0.012441457
228	0xbe060332	-0.13087156
229	0xbdce0a4c	-0.10060558
230	0xbdfb0c8e	-0.12258254
231	0xbd82d7af	-0.06388795
232	0xbc181394	-0.009282012
233	0x3db66458	0.08905858
234	0x3d619624	0.055074826
235	0xbcee3fe0	-0.029083192
236	0x3d2b3134	0.04179497
237	0xbc7234da	-0.014783109
238	0xbdf03112	-0.117281094
239	0xbd9149de	-0.07094167
240	0xbcb68388	-0.022279516
241	0xbd51909e	-0.05116331
242	0x3c45421b	0.012039687
243	0x3d0987b8	0.033576697
244	0xbd770d59	-0.060315464
245	0x3d494586	0.04913857
246	0xbdeb9829	-0.115036316
247	0x3de11d22	0.10991885
248	0xbc28071a	-0.010255599
249	0xbe141eb7	-0.14464842
250	0x3e191d74	0.14952642
251	0x3d5f18d1	0.054467026
252	0x3da9ec52	0.08297028
253	0xbe3e536b	-0.18586509
254	0xbdf0d944	-0.1176019
255	0x3d8bb8d3	0.06822362

fc2.bias f4 [64]
0	0x3d03af3d	0.032149542
1	0xbc50039d	-0.012696174
2	0xbd76c8cc	-0.06025009
3	0x3ddff9d2	0.10936321
4	0x3d8eb883	0.069687866
5	0xbe3a167c	-0.1817264
6	0x3d5ade1d	0.05343448
7	0x3d7f0a97	0.06226596
8	0x3e016654	0.12636691
9	0x3c2f4501	0.010697604
10	0xbdaed9fd	-0.08537672
11	0x3c05ae11	0.008159176
12	0x3dad3071	0.08456505
13	0xbd6c91c6	-0.057756208
14	0xbc401d84	-0.011725787
15	0x3eeec433	0.46634063
16	0x3d44e834	0.04807301
17	0xbc4e1375	-0.012577881
18	0x3abb2880	0.0014279038
19	0xbdfd2608	-0.123607695
20	0x3db756d2	0.089521065
21	0x3d98462e	0.07435261
22	0x3bdff3b9	0.006834474
23	0xbe0d8b1a	-0.13822594
24	0x3dada173	0.084780596
25	0xbdbb78a5	-0.091538705
26	0x3c5069a6	0.012720501
27	0x3d966edb	0.07345363
28	0xbd7f50d7	-0.062332954
29	0xbd216999	-0.039407346
30	0xbc2e0c45	-0.0106230425
31	0x3caa93dc	0.020822458
32	0xbd207d99	-0.03918228
33	0xbdc64576	-0.09681217
34	0x3ce45737	0.027873619
35	0x3ddd1ec1	0.107968815
36	0xbcc5d429	-0.024149017
37	0xbd89f7dc	-0.067367285
38	0x3d2d11f7	0.04225346
39	0x3d527b10	0.051386893
40	0xbd62fd5f	-0.055417415
41	0x3de969a4	0.113971025
42	0x3cbcdb36	0.023053747
43	0x3db6d174	0.08926669
44	0xbd8a9a0f	-0.067676656
45	0xbccb3177	-0.02480386
46	0xba483d69	-0.00076385454
47	0xbddad828	-0.1068576
48	0x3d3e3a9a	0.046442606
49	0xbda38578	-0.079844415
50	0x3e0a49ea	0.13504758
51	0x3d0ee3ea	0.034885325
52	0xbda55ef1	-0.08074749
53	0xbd24056d	-0.040044237
54	0xbe1b3fe3	-0.1516109
55	0xbde09e4c	-0.10967693
56	0xbe011c5e	-0.12608477
57	0x3dec2d5f	0.11532091
58	0xbd5b7ad1	-0.053583924
59	0x3c896474	0.016771533
60	0x3c3ec875	0.011644472
61	0xbcb12e66	-0.02162857
62	0xbc9ad37d	-0.018899674
63	0xbd1da90f	-0.038491305

fc3.weight f4 [32, 64]
0	0x3d901f77	0.070372514
1	0x3d9e0591	0.077159055
2	0x3d80e5a3	0.062938
3	0xbdfd2bca	-0.12361868
4	0x3d628090	0.055298388
5	0xbdc0e2b6	-0.09418242
6	0x3d3a3dab	0.045468967
7	0x3cd28a07	0.025700582
8	0x3e03fd23	0.12889533
9	0xbe1279f7	-0.14304338
10	0xbd7f2244	-0.062288538
11	0xbdbf0573	-0.09327211
12	0x3e0533c3	0.13008027
13	0x3c1a4143	0.009414974
14	0x3ddd575e	0.108076796
15	0xbd5d36eb	-0.054007452
16	0xbdbaabd1	-0.09114803
17	0xbd8498ac	-0.06474432
18	0x3d65f658	0.056143135
19	0x3c21eab0	0.009882614
20	0x3d9f6d68	0.077845395
21	0xbd5e0120	-0.05420029
22	0x3bebd0e8	0.0071965344
23	0xbd279c7c	-0.04092072
24	0x3f3485e9	0.7051683
25	0xbd41b32e	-0.04729002
26	0xbd7099fa	-0.058740593
27	0xbdcdcdb7	-0.100490026
28	0xbdb094e2	-0.08622147
29	0x3f1020a3	0.562998
30	0xbdc75cfd	-0.09734533
31	0xbd27f571	-0.041005556
32	0x3d1c111e	0.03810226
33	0x3d84fa75	0.064930834
34	0x3cc24ee3	0.023719257
35	0x3dd25da0	0.10271764
36	0xbd453a8b	-0.048151534
37	0x39166c04	0.00014345354
38	0x3c44235f	0.011971324
39	0x3d8ed6c5	0.06974558
40	0x3de293e3	0.110633634
41	0x3c95578e	0.018230226
42	0x3cdcae24	0.026938505
43	0xbd1031e6	-0.035203837
44	0xbd995624	-0.07487133
45	0x3d9988d2	0.074967995
46	0xbccadd5f	-0.024763761
47	0x3dde6b01	0.10860253
48	0x3cc19a44	0.02363313
49	0x3d9bb838	0.07603496
50	0x3be10c1a	0.0068678977
51	0x3e8d7bc5	0.2763349
52	0xbe10e5ae	-0.14150116
53	0xbc62d7b7	-0.013845376
54	0xbdd6f8d2	-0.104966775
55	0x3d3c349a	0.045948602
56	0x3cd74ace	0.026280787
57	0xbca97b04	-0.020688541
58	0x3d31f687	0.043447997
59	0x3cc9d18b	0.02463605
60	0xbd942d9d	-0.072352625
61	0xbc6b54b5	-0.014363457
62	0xbd61fef6	-0.05517479
63	0xbccfbd0c	-0.0253587
64	0xbce9d245	-0.028542647
65	0xbd47308c	-0.048630282
66	0xbce09e57	-0.027419252
67	0xbd07a27b	-0.033113938
68	0x3dcae5a4	0.09907082
69	0x3dc267d7	0.09492462
70	0x3da62662	0.0811279
71	0x3d5142b0	0.05108899
72	0xbc8defb4	-0.017326213
73	0xbdfb1911	-0.122606404
74	0x3ddcb31e	0.107763514
75	0xbdd4282b	-0.10359224
76	0xbd6b5abe	-0.057459585
77	0xbca74d06	-0.02042247
78	0x3de981bb	0.11401697
79	0xbdfad450	-0.12247527
80	0xbe10c2cd	-0.1413681
81	0x3deb4e1a	0.11489506
82	0xbd41c72c	-0.047309086
83	0x3d5a2225	0.05325522
84	0x3d884716	0.066541836
85	0xbdafa51c	-0.08576414
86	0x3d8c87af	0.06861817
87	0xbb7bf2a0	-0.0038444176
88	0xbd96733b	-0.07346197
89	0x3d6fb7df	0.058524963
90	0xbd4429d2	-0.047891445
91	0x3db6aab4	0.08919278
92	0xbd4ea82e	-0.050453357
93	0xb9bcdf61	-0.00036024585
94	0xbd05cdb9	-0.032666896
95	0x3d636c80	0.055523396
96	0xbde827c6	-0.11335711
97	0x3d681318	0.056658834
98	0xbda6cc1b	-0.08144399
99	0xbd077304	-0.03306867
100	0x3dda207d	0.10650728
101	0xbe0005e8	-0.12502253
102	0xbd97b917	-0.0740835
103	0x3cdc9fdf	0.026931701
104	0xbd67fdf3	-0.05663867
105	0xbd545c76	-0.05184599
106	0xbbc56957	-0.0060245204
107	0xbdab79a4	-0.083728105
108	0xbc43522f	-0.01192145
109	0xbc9542e7	-0.018220378
110	0x3d903fba	0.07043405
111	0xbda7d3d2	-0.081946984
112	0xbdf203b3	-0.11817112
113	0xbcae5e3d	-0.02128517
114	0xbd87c72b	-0.06629785
115	0xbd05b452	-0.03264267
116	0x3d0343c7	0.03204706
117	0x3d99134b	0.07474383
118	0x3b048229	0.0020219183
119	0xbcd7fea7	-0.026366545
120	0xbde9c56d	-0.11414609
121	0x3de7eaa4	0.11324051
122	0xbc5c4422	-0.0134439785
123	0xbdc932d2	-0.09824146
124	0x3c771624	0.015080962
125	0xbdce32e0	-0.100682974
126	0xbaf89c10	-0.0018967409
127	0xbd27a62a	-0.04092995
128	0xbdca065b	-0.098644935
129	0xbd619385	-0.055072326
130	0xbd980b1e	-0.074239954
131	0x3d00e57f	0.031468865
132	0x3d137e6b	0.036009233
133	0xbe1d5fc7	-0.15368567
134	0xbc6f8f46	-0.014621561
135	0xbd6a1121	-0.05714524
136	0x3dd3e2eb	0.103460155
137	0xbdb3b524	-0.08774784
138	0xbd9b1a58	-0.07573384
139	0xbdbc3580	-0.09189892
140	0xbe244eeb	-0.1604573
141	0x3d926e11	0.071499
142	0xbd8613b3	-0.06546726
143	0x3f050a41	0.5196877
144	0xbd76cb4b	-0.06025247
145	0x3d6a52a0	0.057207704
146	0x3dfcc522	0.123422876
147	0x3bb3d5bf	0.005488127
148	0x3dc16e9c	0.09444925
149	0x3db1bd24	0.08678654
150	0xbc9393f8	-0.018014893
151	0x3db8cbfa	0.090232804
152	0xbeb0b988	-0.3451655
153	0xbe06543f	-0.13118075
154	0xbc465abe	-0.012106596
155	0x3d3d7af0	0.04625982
156	0xbe23fd22	-0.16014531
157	0xbe213820	-0.15744066
158	0x3ddbe7dc	0.10737583
159	0x3dc953c8	0.09830433
160	0xbdb81669	-0.089886494
161	0x3ddc3099	0.10751457
162	0x3ce2c83e	0.027683374
163	0x3cf820ec	0.030289136
164	0xbdda6f1c	-0.10665724
165	0xbd16812c	-0.03674428
166	0x3ddd5083	0.10806372
167	0x3daf2f03	0.08553889
168	0xbc51b7d0	-0.012800172
169	0xbda7da08	-0.08195883
170	0xbd8a8a71	-0.06764687
171	0xbd93ec97	-0.0722286
172	0x3c302001	0.010749818
173	0x3e22fd41	0.15916921
174	0xbdb5ba7e	-0.08873461
175	0xbd230556	-0.03980001
176	0xbdd53173	-0.10409822
177	0x3bbcd0b1	0.0057621826
178	0x3ce56dab	0.028006395
179	0xbecb6f91	-0.39733556
180	0xbcfefa1a	-0.031125117
181	0xbd5347ab	-0.05158202
182	0xbc82ce50	-0.015967518
183	0xbdf63a3a	-0.120228246
184	0x3caf23d0	0.021379381
185	0x3bc31ee6	0.005954611
186	0xbde92d03	-0.113855384
187	0xbdd4f902	-0.10399057
188	0xbd88298f	-0.06648552
189	0x3e082d85	0.13298614
190	0xbddf7356	-0.109106705
191	0x3dda2d2d	0.10653148
192	0x3d394f0d	0.045241404
193	0xbc009fdb	-0.0078506125
194	0xbc31320e	-0.010815157
195	0xbd9466b4	-0.072461516
196	0x3dbcd4db	0.092202865
197	0xbdd35b09	-0.10320098
198	0x3dcec955	0.10096995
199	0xbb878c4c	-0.0041365977
200	0xbd2d2191	-0.04226834
201	0x3d68bb97	0.056819525
202	0x3da2ed4e	0.079554185
203	0xbdc5c701	-0.096570976
204	0xbe462831	-0.1935127
205	0xbe01e98b	-0.12686746
206	0x3d4cea8b	0.050028365
207	0x3f0170c0	0.5056267
208	0xbdc43830	-0.095810294
209	0x3bb92620	0.005650297
210	0x3d6cede4	0.057844058
211	0xbd11665d	-0.03549801
212	0x3cb0d230	0.0215846
213	0x3d46c50c	0.048527762
214	0xbc6af808	-0.014341362
215	0xbdf83f7e	-0.12121485
216	0xbef2d629	-0.47429016
217	0x3d193192	0.03740079
218	0xbd89c419	-0.06726856
219	0x3d872917	0.06599634
220	0xbdc2bab4	-0.09508267
221	0xbe8733a8	-0.26406598
222	0xbd684e58	-0.05671534
223	0xbd9be8ec	-0.07612786
224	0x3dc80eb4	0.097684294
225	0x3de89c1a	0.11357899
226	0xbde4523a	-0.11148496
227	0xbc6500f8	-0.013977282
228	0x3db52634	0.08845177
229	0xbe0d392a	-0.13791338
230	0x3cd92925	0.026508877
231	0xbcffef41	-0.031242015
232	0x3d9321e4	0.071841985
233	0xbda4a411	-0.08039106
234	0x3d9f2fef	0.077728145
235	0x3d8a4387	0.06751161
236	0xbca56927	-0.020191742
237	0xbe5a9161	-0.2134452
238	0x3c788dce	0.015170528
239	0x3c4fdb74	0.012686599
240	0xbdaf7062	-0.08566357
241	0xbe80b956	-0.251414
242	0xbd9d5267	-0.076817326
243	0xbe6452d9	-0.22297229
244	0xbde1e4ed	-0.11029992
245	0xbcfbc083	-0.030731445
246	0x3d82f784	0.06394866
247	0xbad5d75e	-0.0016314795
248	0x3cbbaa1b	0.022908261
249	0xbdd71546	-0.105021045
250	0x3cd3939a	0.025827218
251	0x3d82a382	0.06378843
252	0x3d58b628	0.052908093
253	0xbd78ceba	-0.060744025
254	0xbd882437	-0.066475324
255	0x3da0a678	0.078442514

fc3.bias f4 [32]
0	0xbf35eb94	-0.7106259
1	0xbeaded6e	-0.33970207
2	0x3fbbbb8e	1.4666612
3	0x3ebb64a9	0.36600235
4	0xbeed75a3	-0.46378812
5	0x3f90470d	1.1271683
6	0xbebe1d95	-0.37131944
7	0x3f7f6b61	0.9977322
8	0x3fb9d345	1.4517599
9	0xbe46b513	-0.19405012
10	0x3f58f8ba	0.84754527
11	0x3f700387	0.9375538
12	0xbf1644b8	-0.58698606
13	0x3f8e8d04	1.1136785
14	0x3eb2f3e0	0.34951687
15	0x3fc36056	1.5263774
16	0xbd297ae2	-0.041376956
17	0x3f1e5f75	0.61864406
18	0x3f4f6f7d	0.8102949
19	0x3f82366a	1.0172856
20	0x3f222db5	0.63350993
21	0xbe959721	-0.29216865
22	0xbf20a843	-0.62756747
23	0xbf021e70	-0.50827694
24	0x3f344993	0.70424765
25	0x3f838a5c	1.0276599
26	0x3f5326f1	0.82481295
27	0xbe0ce94c	-0.1376087
28	0xbf135975	-0.57558376
29	0x3f68f88c	0.9100425
30	0x3fb78497	1.4337338
31	0xbe637c94	-0.22215492

fc4.weight f4 [1, 32]
0	0xbf482cf4	-0.78193593
1	0x3c533a15	0.012892266
2	0x3f37e77a	0.7183758
3	0x3f142ba4	0.5787909
4	0x3bb982b8	0.005661335
5	0x3eb922af	0.36159274
6	0xbf0de15b	-0.5542199
7	0x3f564ab1	0.8370772
8	0x3fe9c8ae	1.8264368
9	0xbf51ed17	-0.82002395
10	0x3e765048	0.24054062
11	0x3ef1708c	0.4715618
12	0xbf2d0fbc	-0.67602134
13	0x3f4769dd	0.7789591
14	0x3e0088b8	0.12552154
15	0x3f90e7aa	1.1320698
16	0x3cc3d8bf	0.023907064
17	0x3e08747a	0.13325682
18	0x3eb5bced	0.354957
19	0x3f5896ff	0.846054
20	0x3daad119	0.083406635
21	0x3d1b6acb	0.037943643
22	0x3a720343	0.00092320534
23	0x3c92f953	0.017941153
24	0x3ea6f4fe	0.3260879
25	0x3f1d20cd	0.61378175
26	0x3ef39076	0.47571152
27	0xbf3c3a63	-0.7352659
28	0xbf2fb159	-0.68629986
29	0x3f68cefb	0.9094083
30	0x3f657c54	0.89642835
31	0x3fd0e62d	1.6320244
